…
  (conv1): Conv2d(3, 4, kernel_size=(5, 5), stride=(1, 1))
  (conv2): Conv2d(4, 6, kernel_size=(5, 5), stride=(1, 1))
  (pool): MaxPool2d(kernel_size=2, stride=2, padding=0, dilation=1, ceil_mode=False)
  (fc1): Linear(in_features=150, out_features=120, bias=True)
  (fc2): Linear(in_features=120, out_features=84, bias=True)
  (fc3): Linear(in_features=84, out_features=10, bias=True)
  (loss_function): CrossEntropyLoss()
)
----------------------------------------------------------------
        Layer (type)               Output Shape         Param #
================================================================
            Conv2d-1            [-1, 4, 28, 28]             304
         MaxPool2d-2            [-1, 4, 14, 14]               0
            Conv2d-3            [-1, 6, 10, 10]             606
         MaxPool2d-4              [-1, 6, 5, 5]               0
            Linear-5                  [-1, 120]          18,120
            Linear-6                   [-1, 84]          10,164
            Linear-7                   [-1, 10]             850
================================================================
Total params: 30,044
Trainable params: 30,044
Non-trainable params: 0
----------------------------------------------------------------
Input size (MB): 0.01
Forward/backward pass size (MB): 0.04
Params size (MB): 0.11
Estimated Total Size (MB): 0.16
----------------------------------------------------------------

Extra info:
Model's state_dict:
…
