…
  (conv2): Conv2d(10, 36, kernel_size=(5, 5), stride=(1, 1))
  (pool): MaxPool2d(kernel_size=2, stride=2, padding=0, dilation=1, ceil_mode=False)
  (fc1): Linear(in_features=900, out_features=400, bias=True)
  (fc2): Linear(in_features=400, out_features=120, bias=True)
  (fc3): Linear(in_features=120, out_features=84, bias=True)
  (fc4): Linear(in_features=84, out_features=10, bias=True)
  (loss_function): CrossEntropyLoss()
)
----------------------------------------------------------------
        Layer (type)               Output Shape         Param #
================================================================
            Conv2d-1           [-1, 10, 28, 28]             760
         MaxPool2d-2           [-1, 10, 14, 14]               0
            Conv2d-3           [-1, 36, 10, 10]           9,036
         MaxPool2d-4             [-1, 36, 5, 5]               0
            Linear-5                  [-1, 400]         360,400
            Linear-6                  [-1, 120]          48,120
            Linear-7                   [-1, 84]          10,164
            Linear-8                   [-1, 10]             850
================================================================
Total params: 429,330
Trainable params: 429,330
Non-trainable params: 0
----------------------------------------------------------------
Input size (MB): 0.01
Forward/backward pass size (MB): 0.11
Params size (MB): 1.64
Estimated Total Size (MB): 1.76
----------------------------------------------------------------

Extra info:
Model's state_dict:
…
