…
  (conv1): Conv2d(3, 10, kernel_size=(5, 5), stride=(1, 1))
  (conv2): Conv2d(10, 28, kernel_size=(5, 5), stride=(1, 1))
  (pool): MaxPool2d(kernel_size=2, stride=2, padding=0, dilation=1, ceil_mode=False)
  (fc1): Linear(in_features=700, out_features=120, bias=True)
  (fc2): Linear(in_features=120, out_features=84, bias=True)
  (fc3): Linear(in_features=84, out_features=10, bias=True)
  (loss_function): CrossEntropyLoss()
)
----------------------------------------------------------------
        Layer (type)               Output Shape         Param #
================================================================
            Conv2d-1           [-1, 10, 28, 28]             760
         MaxPool2d-2           [-1, 10, 14, 14]               0
            Conv2d-3           [-1, 28, 10, 10]           7,028
         MaxPool2d-4             [-1, 28, 5, 5]               0
            Linear-5                  [-1, 120]          84,120
            Linear-6                   [-1, 84]          10,164
            Linear-7                   [-1, 10]             850
================================================================
Total params: 102,922
Trainable params: 102,922
Non-trainable params: 0
----------------------------------------------------------------
Input size (MB): 0.01
Forward/backward pass size (MB): 0.10
Params size (MB): 0.39
Estimated Total Size (MB): 0.51
----------------------------------------------------------------

Extra info:
Model's state_dict:
…
