Net(
  (conv1): Conv2d(3, 32, kernel_size=(5, 5), stride=(1, 1))
  (conv2): Conv2d(32, 64, kernel_size=(5, 5), stride=(1, 1))
  (pool): MaxPool2d(kernel_size=2, stride=2, padding=0, dilation=1, ceil_mode=False)
  (fc1): Linear(in_features=1600, out_features=32, bias=True)
  (fc2): Linear(in_features=32, out_features=10, bias=True)
  (loss_function): CrossEntropyLoss()
)
----------------------------------------------------------------
        Layer (type)               Output Shape         Param #
================================================================
            Conv2d-1           [-1, 32, 28, 28]           2,432
         MaxPool2d-2           [-1, 32, 14, 14]               0
            Conv2d-3           [-1, 64, 10, 10]          51,264
         MaxPool2d-4             [-1, 64, 5, 5]               0
            Linear-5                   [-1, 32]          51,232
            Linear-6                   [-1, 10]             330
================================================================
Total params: 105,258
Trainable params: 105,258
Non-trainable params: 0
----------------------------------------------------------------
Input size (MB): 0.01
Forward/backward pass size (MB): 0.30
Params size (MB): 0.40
Estimated Total Size (MB): 0.71
----------------------------------------------------------------

Extra info:
Model's state_dict:
…
