…
  (conv3): Conv2d(10, 16, kernel_size=(3, 3), stride=(1, 1), padding=(1, 1))
  (pool): MaxPool2d(kernel_size=2, stride=2, padding=0, dilation=1, ceil_mode=False)
  (fc1): Linear(in_features=256, out_features=120, bias=True)
  (fc2): Linear(in_features=120, out_features=84, bias=True)
  (fc3): Linear(in_features=84, out_features=10, bias=True)
  (loss_function): CrossEntropyLoss()
)
----------------------------------------------------------------
        Layer (type)               Output Shape         Param #
================================================================
            Conv2d-1            [-1, 6, 32, 32]             168
         MaxPool2d-2            [-1, 6, 16, 16]               0
            Conv2d-3           [-1, 10, 16, 16]             550
         MaxPool2d-4             [-1, 10, 8, 8]               0
            Conv2d-5             [-1, 16, 8, 8]           1,456
         MaxPool2d-6             [-1, 16, 4, 4]               0
            Linear-7                  [-1, 120]          30,840
            Linear-8                   [-1, 84]          10,164
            Linear-9                   [-1, 10]             850
================================================================
Total params: 44,028
Trainable params: 44,028
Non-trainable params: 0
----------------------------------------------------------------
Input size (MB): 0.01
Forward/backward pass size (MB): 0.09
Params size (MB): 0.17
Estimated Total Size (MB): 0.27
----------------------------------------------------------------

Extra info:
Model's state_dict:
…
