…
  (conv3): Conv2d(8, 8, kernel_size=(3, 3), stride=(1, 1))
  (conv4): Conv2d(8, 16, kernel_size=(3, 3), stride=(1, 1))
  (pool): MaxPool2d(kernel_size=2, stride=2, padding=0, dilation=1, ceil_mode=False)
  (fc1): Linear(in_features=400, out_features=120, bias=True)
  (fc2): Linear(in_features=120, out_features=84, bias=True)
  (fc3): Linear(in_features=84, out_features=10, bias=True)
  (loss_function): CrossEntropyLoss()
)
----------------------------------------------------------------
        Layer (type)               Output Shape         Param #
================================================================
            Conv2d-1            [-1, 8, 30, 30]             224
            Conv2d-2            [-1, 8, 28, 28]             584
         MaxPool2d-3            [-1, 8, 14, 14]               0
            Conv2d-4            [-1, 8, 12, 12]             584
            Conv2d-5           [-1, 16, 10, 10]           1,168
         MaxPool2d-6             [-1, 16, 5, 5]               0
            Linear-7                  [-1, 120]          48,120
            Linear-8                   [-1, 84]          10,164
            Linear-9                   [-1, 10]             850
================================================================
Total params: 61,694
Trainable params: 61,694
Non-trainable params: 0
----------------------------------------------------------------
Input size (MB): 0.01
Forward/backward pass size (MB): 0.14
Params size (MB): 0.24
Estimated Total Size (MB): 0.39
----------------------------------------------------------------

Extra info:
Model's state_dict:
…
