…
  (conv4): Conv2d(6, 10, kernel_size=(5, 5), stride=(1, 1), padding=(1, 1))
  (pool): MaxPool2d(kernel_size=2, stride=2, padding=0, dilation=1, ceil_mode=False)
  (fc1): Linear(in_features=250, out_features=120, bias=True)
  (fc2): Linear(in_features=120, out_features=84, bias=True)
  (fc3): Linear(in_features=84, out_features=10, bias=True)
  (loss_function): CrossEntropyLoss()
)
----------------------------------------------------------------
        Layer (type)               Output Shape         Param #
================================================================
            Conv2d-1            [-1, 6, 30, 30]             456
            Conv2d-2            [-1, 6, 28, 28]             906
         MaxPool2d-3            [-1, 6, 14, 14]               0
            Conv2d-4            [-1, 6, 12, 12]             906
            Conv2d-5           [-1, 10, 10, 10]           1,510
         MaxPool2d-6             [-1, 10, 5, 5]               0
            Linear-7                  [-1, 120]          30,120
            Linear-8                   [-1, 84]          10,164
            Linear-9                   [-1, 10]             850
================================================================
Total params: 44,912
Trainable params: 44,912
Non-trainable params: 0
----------------------------------------------------------------
Input size (MB): 0.01
Forward/backward pass size (MB): 0.10
Params size (MB): 0.17
Estimated Total Size (MB): 0.29
----------------------------------------------------------------

Extra info:
Model's state_dict:
…
