…
  (conv5): Conv2d(64, 128, kernel_size=(5, 5), stride=(1, 1), padding=(2, 2))
  (conv6): Conv2d(128, 128, kernel_size=(5, 5), stride=(1, 1), padding=(2, 2))
  (pool): MaxPool2d(kernel_size=2, stride=2, padding=0, dilation=1, ceil_mode=False)
  (fc1): Linear(in_features=2048, out_features=128, bias=True)
  (fc2): Linear(in_features=128, out_features=10, bias=True)
  (loss_function): CrossEntropyLoss()
)
----------------------------------------------------------------
        Layer (type)               Output Shape         Param #
================================================================
            Conv2d-1           [-1, 32, 32, 32]           2,432
            Conv2d-2           [-1, 32, 32, 32]          25,632
         MaxPool2d-3           [-1, 32, 16, 16]               0
            Conv2d-4           [-1, 64, 16, 16]          51,264
            Conv2d-5           [-1, 64, 16, 16]         102,464
         MaxPool2d-6             [-1, 64, 8, 8]               0
            Conv2d-7            [-1, 128, 8, 8]         204,928
            Conv2d-8            [-1, 128, 8, 8]         409,728
         MaxPool2d-9            [-1, 128, 4, 4]               0
           Linear-10                  [-1, 128]         262,272
           Linear-11                   [-1, 10]           1,290
================================================================
Total params: 1,060,010
Trainable params: 1,060,010
Non-trainable params: 0
----------------------------------------------------------------
Input size (MB): 0.01
Forward/backward pass size (MB): 0.99
Params size (MB): 4.04
Estimated Total Size (MB): 5.04
----------------------------------------------------------------

Extra info:
Model's state_dict:
…
