…
  (conv2): Conv2d(6, 6, kernel_size=(5, 5), stride=(1, 1))
  (conv3): Conv2d(6, 6, kernel_size=(5, 5), stride=(1, 1))
  (conv4): Conv2d(6, 16, kernel_size=(5, 5), stride=(1, 1))
  (pool): MaxPool2d(kernel_size=2, stride=2, padding=0, dilation=1, ceil_mode=False)
  (fc1): Linear(in_features=64, out_features=20, bias=True)
  (fc2): Linear(in_features=20, out_features=10, bias=True)
  (loss_function): CrossEntropyLoss()
)
----------------------------------------------------------------
        Layer (type)               Output Shape         Param #
================================================================
            Conv2d-1            [-1, 6, 28, 28]             456
            Conv2d-2            [-1, 6, 24, 24]             906
         MaxPool2d-3            [-1, 6, 12, 12]               0
            Conv2d-4              [-1, 6, 8, 8]             906
            Conv2d-5             [-1, 16, 4, 4]           2,416
         MaxPool2d-6             [-1, 16, 2, 2]               0
            Linear-7                   [-1, 20]           1,300
            Linear-8                   [-1, 10]             210
================================================================
Total params: 6,194
Trainable params: 6,194
Non-trainable params: 0
----------------------------------------------------------------
Input size (MB): 0.01
Forward/backward pass size (MB): 0.07
Params size (MB): 0.02
Estimated Total Size (MB): 0.11
----------------------------------------------------------------

Extra info:
Model's state_dict:
…
