…
  (conv2): Conv2d(32, 32, kernel_size=(3, 3), stride=(1, 1))
  (conv3): Conv2d(32, 64, kernel_size=(3, 3), stride=(1, 1))
  (conv4): Conv2d(64, 64, kernel_size=(5, 5), stride=(1, 1))
  (pool): MaxPool2d(kernel_size=2, stride=2, padding=0, dilation=1, ceil_mode=False)
  (fc1): Linear(in_features=1024, out_features=32, bias=True)
  (fc2): Linear(in_features=32, out_features=10, bias=True)
  (loss_function): CrossEntropyLoss()
)
----------------------------------------------------------------
        Layer (type)               Output Shape         Param #
================================================================
            Conv2d-1           [-1, 32, 30, 30]             896
            Conv2d-2           [-1, 32, 28, 28]           9,248
         MaxPool2d-3           [-1, 32, 14, 14]               0
            Conv2d-4           [-1, 64, 12, 12]          18,496
            Conv2d-5             [-1, 64, 8, 8]         102,464
         MaxPool2d-6             [-1, 64, 4, 4]               0
            Linear-7                   [-1, 32]          32,800
            Linear-8                   [-1, 10]             330
================================================================
Total params: 164,234
Trainable params: 164,234
Non-trainable params: 0
----------------------------------------------------------------
Input size (MB): 0.01
Forward/backward pass size (MB): 0.57
Params size (MB): 0.63
Estimated Total Size (MB): 1.21
----------------------------------------------------------------

Extra info:
Model's state_dict:
…
