…
  (conv1): Conv2d(3, 8, kernel_size=(5, 5), stride=(1, 1))
  (conv2): Conv2d(8, 20, kernel_size=(5, 5), stride=(1, 1))
  (pool): MaxPool2d(kernel_size=2, stride=2, padding=0, dilation=1, ceil_mode=False)
  (fc1): Linear(in_features=500, out_features=120, bias=True)
  (fc2): Linear(in_features=120, out_features=84, bias=True)
  (fc3): Linear(in_features=84, out_features=10, bias=True)
  (loss_function): CrossEntropyLoss()
)
----------------------------------------------------------------
        Layer (type)               Output Shape         Param #
================================================================
            Conv2d-1            [-1, 8, 28, 28]             608
         MaxPool2d-2            [-1, 8, 14, 14]               0
            Conv2d-3           [-1, 20, 10, 10]           4,020
         MaxPool2d-4             [-1, 20, 5, 5]               0
            Linear-5                  [-1, 120]          60,120
            Linear-6                   [-1, 84]          10,164
            Linear-7                   [-1, 10]             850
================================================================
Total params: 75,762
Trainable params: 75,762
Non-trainable params: 0
----------------------------------------------------------------
Input size (MB): 0.01
Forward/backward pass size (MB): 0.08
Params size (MB): 0.29
Estimated Total Size (MB): 0.38
----------------------------------------------------------------

Extra info:
Model's state_dict:
…
