…
  (conv5): Conv2d(64, 128, kernel_size=(3, 3), stride=(1, 1), padding=(1, 1))
  (conv6): Conv2d(128, 128, kernel_size=(3, 3), stride=(1, 1), padding=(1, 1))
  (pool): MaxPool2d(kernel_size=2, stride=2, padding=0, dilation=1, ceil_mode=False)
  (fc1): Linear(in_features=2048, out_features=128, bias=True)
  (fc2): Linear(in_features=128, out_features=10, bias=True)
  (loss_function): CrossEntropyLoss()
)
----------------------------------------------------------------
        Layer (type)               Output Shape         Param #
================================================================
            Conv2d-1           [-1, 32, 32, 32]             896
            Conv2d-2           [-1, 32, 32, 32]           9,248
         MaxPool2d-3           [-1, 32, 16, 16]               0
            Conv2d-4           [-1, 64, 16, 16]          18,496
            Conv2d-5           [-1, 64, 16, 16]          36,928
         MaxPool2d-6             [-1, 64, 8, 8]               0
            Conv2d-7            [-1, 128, 8, 8]          73,856
            Conv2d-8            [-1, 128, 8, 8]         147,584
         MaxPool2d-9            [-1, 128, 4, 4]               0
           Linear-10                  [-1, 128]         262,272
           Linear-11                   [-1, 10]           1,290
================================================================
Total params: 550,570
Trainable params: 550,570
Non-trainable params: 0
----------------------------------------------------------------
Input size (MB): 0.01
Forward/backward pass size (MB): 0.99
Params size (MB): 2.10
Estimated Total Size (MB): 3.10
----------------------------------------------------------------

Extra info:
Model's state_dict:
…
