Net(
  (conv1): Conv2d(3, 6, kernel_size=(5, 5), stride=(1, 1))
  (conv2): Conv2d(6, 16, kernel_size=(5, 5), stride=(1, 1))
  (fc1): Linear(in_features=9216, out_features=120, bias=True)
  (fc2): Linear(in_features=120, out_features=110, bias=True)
  (fc3): Linear(in_features=110, out_features=10, bias=True)
  (loss_function): CrossEntropyLoss()
)
----------------------------------------------------------------
        Layer (type)               Output Shape         Param #
================================================================
            Conv2d-1            [-1, 6, 28, 28]             456
            Conv2d-2           [-1, 16, 24, 24]           2,416
            Linear-3                  [-1, 120]       1,106,040
            Linear-4                  [-1, 110]          13,310
            Linear-5                   [-1, 10]           1,110
================================================================
Total params: 1,123,332
Trainable params: 1,123,332
Non-trainable params: 0
----------------------------------------------------------------
Input size (MB): 0.01
Forward/backward pass size (MB): 0.11
Params size (MB): 4.29
Estimated Total Size (MB): 4.40
----------------------------------------------------------------

Extra info:
Model's state_dict:
…
